notebooks/models/final_model.pth (torch, 343495 bytes, 32 tensors)

pos_encoder f4 [1, 100, 64]
00000000: 214a 24bf 22b0 f43e 388d 223e b44c 80bf
00000010: 67f7 423f 5ced 813f e43a 2b3f 5302 533e
00000020: d284 36bf a601 3dbe e51d e4be 2895 cabf
00000030: 8f1b 5b3f 82d2 4340 dc18 94bf 9fca 913e
00000040: 4f32 c8bd 579d d23d 1e1b 9d3f 62b4 86bf
00000050: daa6 8fbe d4cd 21bf e3b2 87bf c826 02bf
00000060: 255d acbf 7897 623f 4465 5abf 437d 263f
00000070: a8d7 bf3e 784b 0ebf a468 0340 adfd aa3f
00000080: 5963 3dbf 6308 933f 784f e5bd 1e00 ab3f
00000090: 271f da3c e5d4 e7bf e64f aabf 9a45 b13f
000000a0: 5d78 173f 0e96 863e 7dd5 18bf e7dd 56bf
000000b0: 0dcb bdbc f2a7 ecbe 0c68 0fc0 6b5d 1dbe
000000c0: b69b 41bf 950a c8be fb63 fc3d 07d7 c33f
000000d0: 4497 8e3f 4466 1dbe 064c 0e3e fd96 7c3c
000000e0: f603 9e3f 2a3e 133f c57a 42be 02fc a63e
000000f0: bc0d 88bf 440d 20c0 15c9 333f be84 c3bf
00000100: 2e38 7bbf 3356 92bf 6973 11bf 17ea e03d
00000110: e268 383d 8ca0 b9bf ab82 00bf f137 443f
00000120: bcac 1abe fab4 28bf 7b6c 4c3f fb7e 0c3d
00000130: 93f0 903f 869c 5a3f 75aa 6fbf 2f81 90be
00000140: 8429 593f e2eb cd3e 0a9b bc3f f3f9 f7bd
00000150: ddad 60bf 0910 68bf db15 f93f 7ae2 2dbf
00000160: ff13 3f3f 4e6f c2bf 3c77 7e3f 2a00 6cbf
00000170: e539 bdbe b070 d2bf 9887 db3d 1a44 a53f
00000180: 831f 9abf 90bc 59bd cec4 c13d be94 bebf
00000190: d322 603f 452c 013f 6a41 41bf b455 813f
000001a0: 2188 483f 96a5 06c0 f1fa 823f c9a3 e93f
000001b0: ae4e 673d a04d a7be f9b8 ce3e dc4a 4a3f
000001c0: b926 77bf 4f2a 793f 3c70 aebf 3e8c 633f
000001d0: d3d9 c23f 4b72 403d d899 61bf 1122 8abd
000001e0: 7288 d3be d4c5 35bf 5d58 263e 239d 31bf
000001f0: 79ca 90bf 7479 533f 6697 9f3e 9b6a 843f
00000200: 9316 73bf 8abf 7bbf b8c5 893f 8d22 923f
00000210: 7abb 1ebf f243 123f 4c0c 89be 5073 7fbe
00000220: ab27 abbf b642 81be 61f6 6fbf 3a58 9e3e
00000230: f639 8f36 a95b 363e 9d93 a2bd c4fe 03bf
00000240: 04f2 97be e372 953e 9800 563f a43b 0e3f
00000250: 8c43 ca3e c087 ca3f 5868 8a3f f4bd 99be
00000260: c50f 853e 07bf 18c0 c984 d33e e2e5 16c0
00000270: 6aff 5e3f 8d3a d3be 7610 0640 3089 6f3f
00000280: 9e4e b4bf 1d99 1c3f 427b 36bf c289 f2bf
00000290: 4ccf b7be 432d cf3d 3ad7 dc3c c0f6 abbe
000002a0: bde2 bbbf c94b f63e 7967 07c0 44f6 843e
000002b0: fd98 2640 1d01 263e 0635 99bf 8968 583f
000002c0: 0b91 1b3f b7f2 e63e b591 31bf 9a56 e13e
000002d0: d478 8f3f 87b8 a13e 7057 8e3e f490 e9bf
000002e0: 441a f83f ee50 a3bf 2893 9f3f f49e 71bf
000002f0: 89f2 d7be 6f45 3a3f fb3d 7ebe 3272 c6bd
00000300: 641a e83d dc61 36be 722a a13f 7795 1540
00000310: 5d14 2dbe 73b9 08c0 6027 c73f 300e 2440
00000320: 6531 16bf 1265 c93f 53d0 9abf ea19 2ebf
00000330: bcfc 843e f29a 973f 6c86 afbf 01e0 e9bf
00000340: 3b53 e7bf d47d ec3f 8c37 3b3f 5d95 5c3f
00000350: be0f 79bc e16e 60be 891c 7abf 2297 babe
00000360: 69fe 353f ac01 863f e4da 2e3e 97e6 a9be
00000370: 8b7c 463f c1b6 dfbf 815e 543f c5d9 d03e
00000380: fe91 833f b778 dfbf 1e71 58bf f0d4 d0bf
00000390: 810c ca3f b37a ccbe 01fc 133e 5e08 db3e
000003a0: a647 1b3f 7334 ad3f 1f06 443f 6e36 b0bf
000003b0: 8aca 05bf ac5c f2bf df6f 583e 09a2 2f3f
000003c0: 88a7 45bd 701b 933e 4831 97be 85ac f3be
000003d0: 7ac7 6bbf cedb 01bf 19c8 223f dfc8 ee3f
000003e0: 308d f5bf ea98 b73f af37 ac3f 0dcc fa3e
000003f0: bdf2 c4be 8520 9f3f 7d5e a9bd 1e95 6a3e
-0.6417561 0.4779063 0.15874183 -1.0023408 0.76158756 1.0150561 0.66886735 0.20606355
-0.7129642 -0.1845766 -0.44554058 -1.5826769 0.85588926 3.0597234 -1.1570086 0.284749
-0.097752206 0.102839164 1.22739 -1.0523798 -0.28056985 -0.63204694 -1.0601467 -0.50840425
-1.3465925 0.8851237 -0.8531077 0.65034884 0.3746922 -0.55583906 2.0532618 1.3358666
-0.7397972 1.1486934 -0.11196798 1.3359411 0.026626183 -1.8111845 -1.3305633 1.3849366
0.59168035 0.26286358 -0.5970076 -0.83932346 -0.023168111 -0.46221882 -2.2407255 -0.15367667
-0.7562822 -0.39070573 0.12323757 1.5299996 1.1139913 -0.15371042 0.13896188 0.015416858
1.2344959 0.5751673 -0.18992145 0.32614142 -1.0629191 -2.5008097 0.702287 -1.5274885
-0.981326 -1.1432556 -0.56816727 0.10982149 0.0450219 -1.450212 -0.50199383 0.7664786
-0.15104955 -0.6590115 0.7985303 0.034300786 1.1323417 0.85395086 -0.9361947 -0.2822356
0.8482897 0.40219027 1.4734814 -0.12108221 -0.87765294 -0.9064947 1.9459795 -0.679237
0.74639887 -1.5190217 0.9940069 -0.9218775 -0.36958233 -1.644064 0.10719222 1.2911408
-1.2040867 -0.053158343 0.09461366 -1.4889143 0.8755314 0.50458175 -0.7549044 1.010428
0.78332716 -2.1038566 1.0232831 1.8253108 0.05647152 -0.3267641 0.40375498 0.79020476
-0.9654346 0.9733018 -1.3628001 0.8888587 1.5222725 0.046984 -0.8812537 -0.06744779
-0.41315037 -0.71004987 0.16244645 -0.69380397 -1.131179 0.826072 0.31170195 1.0345033
-0.9495632 -0.9833914 1.0763464 1.1416794 -0.62004817 0.57134926 -0.26767194 -0.24946332
-1.3371481 -0.2524621 -0.9373532 0.30926687 4.2684796e-06 0.17808403 -0.07938311 -0.51560616
-0.2967683 0.29189214 0.83594656 0.55559754 0.3950466 1.5822678 1.0813093 -0.30027735
0.25988594 -2.3866594 0.41312245 -2.357781 0.8710848 -0.41255608 2.0947547 0.93568707
-1.4086492 0.6117113 -0.71281826 -1.894829 -0.35900342 0.10116055 0.026958097 -0.33586693
-1.467857 0.48104694 -2.1156905 0.25969136 2.6030877 0.16211362 -1.1969306 0.8453451
0.60768193 0.45107052 -0.69362956 0.44011384 1.1208749 0.31586096 0.27801085 -1.8247361
1.9383016 -1.2759073 1.2466784 -0.9438317 -0.42177227 0.727622 -0.24828331 -0.0968975
0.113331586 -0.17810768 1.2591078 2.3372476 -0.16902299 -2.136319 1.5558891 2.563366
-0.5866912 1.5733969 -1.2094826 -0.6800829 0.2597407 1.184416 -1.3712897 -1.8271486
-1.8072275 1.84759 0.7313163 0.8616541 -0.015201507 -0.21917297 -0.9769979 -0.3644343
0.71091324 1.046926 0.17075688 -0.3318374 0.7753379 -1.7477647 0.829567 0.40791145
1.0278928 -1.7458714 -0.84547603 -1.6314983 1.5785066 -0.39937362 0.144516 0.4277982
0.606562 1.3531631 0.7657184 -1.3766611 -0.52262175 -1.8934531 0.21136425 0.6860662
-0.048255473 0.2873187 -0.29529786 -0.4759256 -0.9210125 -0.5072602 0.63586575 1.8655051
-1.9183712 1.4343541 1.3454493 0.48983803 -0.38466445 1.2431799 -0.08269975 0.22908446

input_projection.weight f4 [64, 46]
00000000: b97f 2f3e 3c4b 333e 3c49 a3bd cbf4 393e
00000010: 5c09 bcbc bf57 f83d 9695 813b 60ee f53d
00000020: 9806 293e e049 b1bd 5f1e 073e 0891 093e
00000030: ceee 183e d3d4 5f3d 1308 bb3d f456 94bb
00000040: 7a75 073e f61e af3d 38d1 d8bb 9288 8b3d
00000050: f235 4dbd 0a52 103d 4a6e a5bd 95e0 4c3e
00000060: b886 36bd e849 b2bc c40c 83bc d967 5bbd
00000070: bb0a 473d ae81 c0bd b3af c03d b78b 80bd
00000080: 77df 283e c9aa a83d a74b 9fbc 49ec 0e3e
00000090: 0169 ae3d 2f44 503e ddbe ef3c 5c28 1039
000000a0: 439e ae3d 1083 88bd d124 9e3d 32b8 353e
000000b0: a3fb b83d b7fd 0bbd d8fb c03c 3a7d cfbc
000000c0: 97cb ee3d 991a 07be f1cb 29be ba11 a8bd
000000d0: 6c58 21be 5e0f 773d 243f 9fbb 25d8 4c3d
000000e0: f210 ba3d 11ff cfbd 29f6 8c3d 3a6a d2bd
000000f0: 7bf5 e13c 2cf2 73bd 8ac8 b23d c2e6 36be
00000100: 39ac e6bc f993 d8bc 6b52 0b3e aa0e 87bd
00000110: 8a67 c6bd af04 c2bd 4e1d b13d b79e e53b
00000120: 9dd8 073e 6810 2dbe ffaf 13be e9b6 26be
00000130: bdd7 27be 23ff 76bc 595d 773d 1eb1 df3d
00000140: 70f3 bfbd 1e64 05be 77f7 753c 3a9b cabd
00000150: 4e6e 913d 1b41 36bd 7af5 a13d 0144 b1bd
00000160: 25b9 2bbe 2e2e b8bc 9005 0d3c 3e2e 48bd
00000170: 0930 d63d a001 fa3d a459 eabd a9a1 5bbd
00000180: 4154 2f3e 0af6 44bc 14f2 94bd 5621 24be
00000190: 4ba6 adbd b797 a23c b390 a53c 6972 15be
000001a0: 15fa 97ba e99a d8bd b133 0abe e416 09bd
000001b0: d632 fabd 0550 86bd 03f0 713e af6c bbbc
000001c0: 7b98 993d f502 01be a120 a8bd a50e d3bb
000001d0: b0d8 313d 293a d6bd 6c1e c7bc 0380 b5bd
000001e0: b213 98bb 73f8 f7bc 1855 123d 3a5d 62bd
000001f0: 7f0a 4bbd 104d 26bd 4418 f4bc 904b a9bd
00000200: 17ee 013e 479b b23c 9af5 1b3e 3ac9 683d
00000210: f39e e7bd 7ae9 a53d 840d c5bc 16df 4ebd
00000220: 1d8b aabd a761 edbd 56e3 3c3d 6b74 bcbc
00000230: 09af 71bc f848 eebd 398d fc3d 7d54 a2bd
00000240: 825d 303d 012a c23c f401 e23d d613 e03d
00000250: dc29 ce3d d7ec 4fbd 4b2c 203d 79e5 2dbd
00000260: 026f 4bbd 1d70 abbd ca6e 483e 44dc a1bd
00000270: 60ec 1c3e eabd 713d eea6 5b3d 5664 e3bc
00000280: 915d f83d ed16 823d 133d 0d3d 133a 00be
00000290: b0d5 8b3d 088e 463c 1fce 3ebd 988b 2d3e
000002a0: d888 ce3d b097 0bbd 2d78 51bd aaea 9f3c
000002b0: 73c8 de3d 0bf4 76bc a3e6 91bd 12c6 adbb
000002c0: cf99 b7bd 0671 ba3c 2e6e a73d a8f7 07be
000002d0: 757a b63c 7b72 9c3d 09d2 35bd 52dc 35bd
000002e0: 8204 d03d e21a c73d 281b bb3d 2949 f5ba
000002f0: b871 03be d247 aabb 1b86 d4bd 54a0 04be
00000300: 41d7 773d 8e04 e63d f219 3d3d 5ec5 93bd
00000310: 7238 be3c da3d 44bc a2cf 4c3d 4248 ee3c
00000320: 6e9a f5bd 2230 3ebe f470 f13d eda9 a93d
00000330: a554 0b3d abe1 fbbd 7f7a 27bd 5b3a fdbd
00000340: 1d4b 79bd 6d29 973d 0633 1a3e 9fa3 0c3d
00000350: 56b5 08be f48d e6bd 57fc ccbd 2ffb b73d
00000360: dfe8 aa3c 102e 0fbd c544 883d 9b7b 4abd
00000370: fa5b abbd 9a75 e63d 0f99 b8bd a793 aebc
00000380: da3f 0abe b208 1c3d def0 923d 68a1 f7bc
00000390: 683e 74bd 9ee6 babd 08d3 06be 90be eb3d
000003a0: a373 a03d 366d 003e b3a1 983d 453e 8c3d
000003b0: 95e0 b23d 3d81 e4bd 785d 86bd 7cb6 f0bd
000003c0: 8ff1 bc3d e3c6 cbbd 3603 38bd a116 30bd
000003d0: 67f3 89bc 949b 03be 7ccb d1bc 331f 7b3d
000003e0: a0f9 923c 37c4 873d 42d9 a6bd 5f46 2cbd
000003f0: ef0e 9fbd 3a1e 9abd 8243 a7bc 4754 0ebe
0.17138566 0.17509168 -0.07972953 0.18159787 -0.022953682 0.12126111 0.0039545996 0.12008357
0.16506422 -0.08656669 0.1319518 0.13434231 0.14934847 0.054646324 0.091323994 -0.004526967
0.13228408 0.08550827 -0.0066167377 0.06813158 -0.050100274 0.03523449 -0.080776766 0.20007546
-0.04456207 -0.021763757 -0.015997298 -0.053565834 0.048594218 -0.093997344 0.09408512 -0.062766485
0.16491495 0.082357 -0.019445254 0.13957323 0.08516122 0.2033851 0.029265815 0.00013747945
0.0852628 -0.06665623 0.07721866 0.17746046 0.09032371 -0.03417751 0.023557588 -0.025328267
0.116599254 -0.1319374 -0.16581704 -0.08206506 -0.15756387 0.06031739 -0.004859822 0.05001082
0.09085263 -0.10156072 0.06882889 -0.10274167 0.027582875 -0.059557125 0.08729656 -0.17861465
-0.028158294 -0.026437746 0.13605659 -0.06594594 -0.09687717 -0.094735496 0.086481676 0.0070074457
0.13266225 -0.1690079 -0.14422606 -0.16280712 -0.16390891 -0.015075478 0.060391758 0.10922454
-0.09372604 -0.13026473 0.0150126135 -0.09892888 0.07101117 -0.044495683 0.07908149 -0.08655549
-0.16769846 -0.022482958 0.008607283 -0.048872225 0.10458381 0.12207341 -0.11442879 -0.053620968
0.17121984 -0.012021551 -0.07272735 -0.16028342 -0.084789835 0.019847734 0.0202106 -0.14594425
-0.0011594916 -0.10576422 -0.13496281 -0.033469096 -0.122167274 -0.06558231 0.23626713 -0.022878973
0.074997865 -0.12598784 -0.082093485 -0.0064409547 0.04341954 -0.10460312 -0.024306498 -0.08862307
-0.0046410197 -0.030269837 0.035725683 -0.05526469 -0.049570557 -0.040600836 -0.029796727 -0.082663655
0.1268848 0.021802558 0.15230408 0.05683253 -0.11309614 0.08101173 -0.024054296 -0.05050572
-0.08327315 -0.11590891 0.046115242 -0.023004731 -0.014751204 -0.116350114 0.123316236 -0.07926271
0.043057926 0.02370167 0.11035529 0.109412834 0.10066578 -0.050762977 0.03910474 -0.04245517
-0.049666412 -0.08370993 0.19573513 -0.079033405 0.15324545 0.059019007 0.053625993 -0.027757805
0.121272214 0.06352029 0.034482073 -0.12522154 0.06827867 0.012118824 -0.04658329 0.16947782
0.100846946 -0.034080207 -0.05114 0.019521076 0.108780764 -0.015072833 -0.071240686 -0.005303153
-0.089648835 0.022758972 0.08175312 -0.13278067 0.022275189 0.07639023 -0.04438976 -0.044399567
0.1015711 0.09721924 0.09136039 -0.001871382 -0.12836349 -0.00519655 -0.10377141 -0.12951785
0.060508016 0.112313375 0.04616732 -0.07215379 0.023220275 -0.011977637 0.0500027 0.02908719
-0.11992346 -0.18573049 0.11789122 0.08284364 0.03401627 -0.12298902 -0.040888306 -0.12364646
-0.06086265 0.07380948 0.15058526 0.03433573 -0.13350424 -0.11257544 -0.100090675 0.08983456
0.020862995 -0.034956038 0.06653742 -0.049434286 -0.083671525 0.112528995 -0.090135686 -0.02131064
-0.1350092 0.03809423 0.07174848 -0.030228332 -0.059629828 -0.09126018 -0.1316644 0.11510956
0.07834556 0.1254166 0.07452717 0.068478145 0.08734242 -0.11157463 -0.065607965 -0.11753556
0.09225761 -0.09950044 -0.044924937 -0.04299033 -0.016839696 -0.12852317 -0.025609724 0.06130905
0.017941296 0.06629222 -0.081469074 -0.0420593 -0.0776652 -0.075252965 -0.020417932 -0.13899337

input_projection.bias f4 [64]
00000000: 9fc6 2b3e 8a65 bdbc cefd 03bc af34 dd3d
00000010: b47c 1e3d 9c92 233e 9cd5 693d 9ac8 91bc
00000020: c874 983c 27cc d93d fa57 74bd 9002 92bb
00000030: dcc1 93bd 6061 28bd ad20 4fbd 7cfd bd3a
00000040: 7e2e d7bd 66df 5dbd f467 a63d 72cf e73d
00000050: 9c36 46bd 1d41 8cbb 1e80 8cbc 9109 fdbd
00000060: 722a 86bd 1a75 a1bd d3c5 a63d b4f4 06be
00000070: a3b9 08be 42b5 9dbd 379e 28be 49d8 063d
00000080: 620e 073d 8a08 28bd e7cf c23c e452 283e
00000090: a147 e93c 95aa d73c cb56 99bc eabb f23d
000000a0: 5384 0cbe 3da3 833d a6fe 053e 5fd0 f4bd
000000b0: 2620 e23c 1d68 88bd f791 3fbe 6b90 1f3c
000000c0: 423b 963c 52f1 923c e7e5 bb3d b5c7 b9bd
000000d0: 36cd 14bd 0f6f dc3d ccae 32be 9ff9 bcbc
000000e0: d08d 213e 01e6 443e eede 9f3d b39f 28be
000000f0: 0aef ba3d d0c3 0fbe f2e2 7ebd 4ee3 0f3e
0.16774987 -0.023119707 -0.008056117 0.10801064 0.038693145 0.15973896 0.05708848 -0.01779585
0.018610373 0.10634642 -0.059654213 -0.004455872 -0.0721471 -0.04110849 -0.05056827 0.00144951
-0.105069146 -0.054168127 0.08125296 0.11318864 -0.048391923 -0.004280223 -0.017150935 -0.1235534
-0.065510646 -0.078836635 0.08143201 -0.13179284 -0.13352065 -0.07700588 -0.16466604 0.03292111
0.0329727 -0.04102377 0.023780776 0.1643787 0.028476538 0.026326457 -0.018718144 0.11852248
-0.13722353 0.064276196 0.13085422 -0.11953806 0.02760322 -0.06660483 -0.18708025 0.009739022
0.018338803 0.017937336 0.0917471 -0.09071294 -0.036328517 0.1076337 -0.17449492 -0.023068247
0.15776753 0.19228365 0.07806192 -0.1646717 0.09127624 -0.1403954 -0.06222815 0.14051554

transformer.layers.0.self_attn.in_proj_weight f4 [192, 64]
00000000: 43b8 323c c8af fa3c 1777 fd3d 18fb 7dbd
00000010: ae74 78bd 90a0 303e a607 80bd b5dd 463d
00000020: c7aa 0d3e 7480 e6bb 131c a63d 776f 8ebd
00000030: a14d e33a 3751 01be 9833 d73d b259 a83d
00000040: a5c6 12be 09ea eebd 44ec 07be 4c1b 33bd
00000050: 4082 4b3d 9cfd 703b f402 15be 9716 1fbe
00000060: 0424 d6bd a97b 23ba 40de 07be 11ff babd
00000070: 63e6 ffbd 39a6 cf3d 792c 1f3e 8273 69bd
00000080: 5a66 4ebd f489 5339 e478 bfbd bc98 db3d
00000090: d41e 9fbc e64a 093d a5c9 473e ffe9 0dbe
000000a0: 4674 f33d edb2 033e cc49 c03d 1add 4cbc
000000b0: f128 adbd f436 0fbe 14bc 27be 2da5 e0bd
000000c0: 8229 b93c 344a 033d 2394 23be a6d3 3a3e
000000d0: fdc3 02be 356b 9f3c faed 713b c5fb 153e
000000e0: 696e d7bd be72 693d af47 193b 23eb 9d3d
000000f0: ed66 0cbe 7c7d 37bd 670b 933d 7efc 46be
00000100: bd0d 77bd 2907 2cbe 50d9 923d 6ad3 843d
00000110: 01a9 1ebe 47ee 333e ab69 163d c5f2 d0bd
00000120: c5ca 95bd 9272 a63d 97ee aabd 30fa 0f3c
00000130: 716e d23c f459 00be 5158 8cbd 2e57 863d
00000140: d2c0 13be e324 293e 84af ff3c 5cfc 2fbd
00000150: b3be 67bd 78bd 7ebd b08c 893d b4c2 873d
00000160: d0c2 3cbe 8740 4cbc 4b49 da3d 9c98 d3bd
00000170: 4e52 2e3d a3f9 41bd 3370 3d3d 05ec 91bc
00000180: 2c96 3d3e 4832 373d 66c3 cbbd fb4c f1bc
00000190: 17c0 4fbd 6c9b f9bd 29b9 2dbe 509f 4f3e
000001a0: ae9e a13d 1f0b 87bd 3862 3abd f7c4 863d
000001b0: 0146 613d dd33 393e a027 333d a532 a33d
000001c0: 58a9 33be c950 903b 87de 8d3d ec76 9ebd
000001d0: 546c 0ebe a073 9c3d 1e40 123e 0ce7 063e
000001e0: a1d8 103e 35af c93d d18a 663d 0fab 463c
000001f0: 0f79 b33b 60e0 95bc c440 c43d fb7a 2a3e
00000200: b038 1dbe a444 143e 6fc4 70bd 5125 3d3e
00000210: 8904 b2bd 712a 323d afd9 263d 8701 9d3d
00000220: 4da6 143e 46ae bcbc 25ae 2bbe fb99 afbc
00000230: 4f9e a13d e6ab 76bd 76c9 083e 5344 0dbe
00000240: 976e 023e 4226 0ebe 50bf d6bc 7177 3b3e
00000250: d496 0c3e c95b 18be f30d e4bc e1b7 523d
00000260: b3e2 01bd d4d0 ea3d 8252 c23d 519c 4c3d
00000270: 142b b9bc 900a fd3c 2503 4e3e d8cb 323d
00000280: b43e 29be e39d ca3b bf8b 853b f000 03be
00000290: 866b 203e 397b d33d 7795 6b3e 3ed7 553c
000002a0: 7846 623e d8fd 573e 5729 f6bd fba6 f83c
000002b0: 63af 4a3c ff49 74bd 1ab4 a8bd 246a d43d
000002c0: ebbd d83d 0788 0fbe d300 33be af8c 1bbe
000002d0: e32b 21be 84b9 113e 5d5f 0ebd 57a5 443d
000002e0: 7675 c6bd b9d8 92bd d4e0 f93d 49dc d0bc
000002f0: e281 2f3b 3ada 2c3d f8ea 3c3e 2fa3 e5bc
00000300: cc09 b8bc 5d04 803c 0527 2dbc 06e3 76bd
00000310: 2b7a aabc d423 b9bd a255 b3bd 97a0 ad3d
00000320: 375b 033d f864 24bd 0c00 603c f374 743d
00000330: 8ff1 013e 0a19 c0bd a431 4e3c 3419 113c
00000340: 195a 0dbd 3d9f 0a3c 6336 1d3d 6f7b 053e
00000350: f920 0f3e 7048 153e d291 383d 3006 adbd
00000360: e048 09be 8ac5 4d3d 711f 8abd 0294 c6bc
00000370: fbb8 173e d68a 853d bc94 133d 013a fe3b
00000380: 5383 e3bc 6b57 a83d 6df7 e73d b801 f4bd
00000390: 0923 5c3e 37fe 833d ed60 203e 28a7 abbd
000003a0: 08e7 0a3e 1ba8 c1bd 1a5f a1bd 2478 a43d
000003b0: 69f5 733d 4403 193e 2adc cd3d 6ee4 9abc
000003c0: e57f 3fbd 62ee f03c 9f76 85bc c143 09be
000003d0: c753 26be 1cb5 68bc 4215 89bd 242f ecbd
000003e0: 975e 863d 95f2 103c a3b9 7abb e2ca 0abd
000003f0: c550 33bd 25db 183e dff5 01bd 3758 eb3d
0.010908189 0.030601397 0.1237623 -0.06200704 -0.06065815 0.1724875 -0.06251459 0.04855128
0.13834678 -0.007034356 0.081108235 -0.06954854 0.0017341861 -0.12628637 0.105078876 0.08220233
-0.1433359 -0.116657324 -0.13273722 -0.043727204 0.049684763 0.0036772257 -0.14551908 -0.15535961
-0.10456088 -0.00062363833 -0.13268375 -0.09130681 -0.12495115 0.10139126 0.15544309 -0.056994922
-0.05039058 0.0002017392 -0.0934923 0.10722491 -0.01942388 0.033518694 0.19510515 -0.13858794
0.11887412 0.12861224 0.09389076 -0.012503887 -0.084550746 -0.13985807 -0.1638034 -0.10969005
0.0226028 0.032053187 -0.15974478 0.182448 -0.12770076 0.0194603 0.0036915527 0.14646824
-0.10519106 0.056994192 0.0023388674 0.077108644 -0.13711138 -0.044797406 0.07179909 -0.19432256
-0.060315836 -0.16799606 0.07170355 0.064856365 -0.15494157 0.17571364 0.036721867 -0.102025546
-0.07314066 0.08127321 -0.08346289 0.008787677 0.025687428 -0.12534314 -0.068527825 0.06559597
-0.14429024 0.16517977 0.031211622 -0.042965278 -0.05657835 -0.06219241 0.06716287 0.066289335
-0.1843369 -0.012466556 0.10658511 -0.10331842 0.04255896 -0.047357213 0.04624958 -0.017812738
0.18514317 0.044725686 -0.09949379 -0.029455652 -0.0507203 -0.121878475 -0.16965164 0.20275617
0.07891594 -0.06593918 -0.045503825 0.06580537 0.0549984 0.1808619 0.04373896 0.07968644
-0.17545068 0.0044041616 0.06927209 -0.07737526 -0.13908511 0.07639241 0.14282271 0.13174075
0.14145137 0.09847871 0.05628473 0.0121257445 0.005477078 -0.018295467 0.095826656 0.16648476
-0.15353656 0.1447931 -0.058781084 0.18471266 -0.08692271 0.043497507 0.040734943 0.07666307
0.14516564 -0.023032319 -0.1676565 -0.021435728 0.07891523 -0.06022253 0.13358101 -0.13795595
0.12737499 -0.13881782 -0.026214272 0.18307282 0.13729411 -0.14878763 -0.027838683 0.05144489
-0.031710338 0.11465612 0.09488393 0.049953762 -0.022603549 0.030888826 0.20118387 0.04365143
-0.16527826 0.0061833723 0.004075497 -0.12793326 0.15666017 0.10326237 0.23006235 0.013051806
0.22097194 0.21092927 -0.12019604 0.03035306 0.012370917 -0.05964088 -0.08237477 0.10371807
0.10583099 -0.14016734 -0.17480783 -0.15190385 -0.15739398 0.14230925 -0.034758914 0.048009243
-0.09690373 -0.07170243 0.12201086 -0.025495665 0.0026780297 0.042200305 0.18449008 -0.028031914
-0.022465609 0.01562708 -0.010568385 -0.0602751 -0.020810207 -0.09040037 -0.087565675 0.08477896
0.03206941 -0.040135354 0.013671886 0.059681844 0.12689804 -0.09379776 0.012585077 0.008856107
-0.034509752 0.008460817 0.038381945 0.13035367 0.13977422 0.14578414 0.04506094 -0.08448446
-0.13406706 0.050237216 -0.06744278 -0.024240497 0.14816658 0.065206215 0.036030516 0.0077583794
-0.027772581 0.08219799 0.113264896 -0.1191439 0.2149774 0.06444972 0.15661974 -0.08381492
0.13564694 -0.09455892 -0.07879467 0.080307275 0.059560213 0.14942652 0.100517586 -0.018907752
-0.04675283 0.029410545 -0.016291915 -0.13404752 -0.16242896 -0.014203336 -0.06693508 -0.11532429
0.0656101 0.008846899 -0.003825762 -0.03388489 -0.0437782 0.14927347 -0.03172862 0.11491435

transformer.layers.0.self_attn.in_proj_bias f4 [192]
00000000: 3b54 383c 31fb 443d 16ca b8bc 0e64 ebbc
00000010: c093 4f3d f187 643d 008e 97bd 7c4d 82ba
00000020: 1c5b 99bc 63f2 d83c b9a7 81bb 916c 00bc
00000030: 06bb fdbb 7f1d cabc d3a9 8fbd 14d2 38bc
00000040: 6030 7bbc 4204 7a3d f73d 373c e3e0 7cbd
00000050: c942 263d 77d1 0dbd 4fc3 8bbd ada7 37bd
00000060: 5aab fbbb 868d a2bb 9f88 dabc 10b7 e9bb
00000070: e84d bebc 2eca e53c 1684 06bd 23ec 6cbb
00000080: 4606 9cbd 06ad 25bd 21b3 4ebd 2584 d8bc
00000090: 9a0f 543d 4498 003d 8a5d c33a 086a d03c
000000a0: 96d9 64bd 0f93 cebc a5b0 39bd d58e 573c
000000b0: 27d7 a9bc 7a7a 00bd 712f ba3c f0ff 9a3c
000000c0: 160d d33c 8c7a 87bc 36c7 d2bd abb5 93bb
000000d0: 2199 043d 56fa b4bc d95c d5bd e92d a2bc
000000e0: 8491 4a3d 6810 493c 9b39 993d 2da0 c8bd
000000f0: e6d0 af3d a353 653c 9bac 72bd 975f ef3b
00000100: bdb7 0cba 3e27 9a3c 5c8c 353d 4e99 813c
00000110: 3937 cbbc bace 1a3d 8f4f 123d 016a 123c
00000120: 4fa1 a1bc 1d1d acbc e1d3 2fbd 88e3 f23c
00000130: ca8b a2bc 43fb bdbc 4c11 7cbc 35f8 3e3c
00000140: 42c0 2e3d fce0 69bc cd9e 15bd 6228 143d
00000150: 8d94 32bc fd95 433a 8419 cf3c 791a 32bc
00000160: 40d3 5e3d fa9e 0dbd 318b d83c 9f42 a3bd
00000170: 13b3 17bd d7f2 e3bc 813e 4b3d 7d69 3dbd
00000180: 7376 3bbd fadb 61bc 09cb 86bc af50 b4bc
00000190: 17c6 a73b 8814 aa3c bfd6 6ebd 62d3 dc3b
000001a0: 9a27 ea3c dc8c 11bd 97f1 0cbd 9b09 163d
000001b0: 9341 d33b f8ba 283d 89c3 553d 8836 0a3d
000001c0: 1d74 16bd 94d6 263c 37f6 56bc b425 0a3d
000001d0: c114 cfbc d7f7 05bb 9e14 4dbc 9be4 8a3c
000001e0: 78f4 323c 9978 a1bc 37d9 b1bc 8442 01bd
000001f0: edee a73b f17e 34bc e526 8c3c 1886 943c
00000200: f7a9 4a3d 46eb 85bd cd59 1e3d bec0 2bbd
00000210: 9b76 293d 0e67 87bd be32 943d f56b 7b3d
00000220: 0773 d8bc 8cdb 41bd 0405 1fbd 9d23 2cbd
00000230: 2447 12bc dfa5 26bd 060b 84bd 4329 2a3d
00000240: 0f57 3dbc 4dbc 803c 8403 39bd 9773 7a3d
00000250: e97e 443d d5be c0bc 99f1 933d 9182 75bd
00000260: f4ec a0bd fa0f 98bc 9df0 b83c bd18 97bd
00000270: 2ca1 a03c 53f6 2bbd e372 833d 7d0c 8fbc
00000280: 3609 783d 0ab4 d03c b1d5 05bc 03b3 853d
00000290: 7f75 bb3d 9d3f bb3d 6634 6d3c fb48 823d
000002a0: 6e24 f13d cc69 9dbd b4b5 65bc abf0 b0bd
000002b0: 0143 e1bc 07f7 6f3d 8c97 7d3d 49ef 44bd
000002c0: 88cb 81bd ed93 ca3d 4c0a 403d 32fc 95bd
000002d0: 95f2 65bd e276 a6bd f3bc 4dbd d643 a23d
000002e0: 441f 063d 458c 953c f8cc ba3d 58ff 673d
000002f0: d595 503c ef94 b6bd c7cc 8c3d 7016 593d
0.011250551 0.048091117 -0.0225573 -0.028734233 0.050678015 0.055793706 -0.07400131 -0.0009941305
-0.018720202 0.026482766 -0.0039567617 -0.007838384 -0.007743242 -0.024672268 -0.07014813 -0.011280555
-0.015331358 0.061039217 0.011184207 -0.061737906 0.040591035 -0.03462359 -0.068243615 -0.044837642
-0.007680339 -0.0049607186 -0.026676474 -0.0071324185 -0.023230508 0.028050508 -0.03284081 -0.003615149
-0.07618384 -0.04044821 -0.0504638 -0.026430199 0.05177269 0.03139521 0.0014905196 0.025441185
-0.05587157 -0.025216607 -0.045334477 0.013156612 -0.020732475 -0.031366803 0.0227277 0.018920869
0.025763076 -0.016537927 -0.10291903 -0.0045077405 0.032372598 -0.022092026 -0.104181 -0.019797282
0.04945518 0.012271978 0.074816905 -0.09796176 0.08584766 0.013996991 -0.05924664 0.0073050964
-0.00053679553 0.01881754 0.04432331 0.015820172 -0.024806606 0.037794806 0.035720404 0.008936406
-0.019730238 -0.021009976 -0.042926673 0.029649511 -0.019842047 -0.0231911 -0.015384983 0.011655857
0.04266382 -0.014274832 -0.036528397 0.036171325 -0.010899675 0.00074610097 0.025280721 -0.010870569
0.054400682 -0.03457544 0.02643356 -0.07971691 -0.037036013 -0.027825756 0.049620155 -0.04624318
-0.04576726 -0.013785357 -0.016454237 -0.02201113 0.0051200497 0.020761743 -0.058310267 0.006739066
0.028583337 -0.035534725 -0.034410086 0.036630254 0.006447026 0.041193932 0.05218843 0.03374341
-0.036731828 0.010182995 -0.013120226 0.033727363 -0.02527845 -0.0020441914 -0.012517123 0.01695471
0.010922544 -0.019710826 -0.021710021 -0.031557575 0.0051249177 -0.011016593 0.01710839 0.018130347
0.049478497 -0.065390155 0.03865986 -0.04193186 0.041372877 -0.06611453 0.07236241 0.061382253
-0.026422037 -0.047328517 -0.038823143 -0.04202615 -0.008928094 -0.04068553 -0.06447415 0.041543256
-0.011556401 0.015714789 -0.04516937 0.06114539 0.047972593 -0.023528496 0.072238155 -0.05993897
-0.07857695 -0.018562306 0.02257567 -0.07377765 0.019608103 -0.04198296 0.06418397 -0.01746201
0.06055566 0.025476474 -0.008168624 0.065282844 0.0915327 0.09142993 0.014477825 0.06361576
0.117745265 -0.07686195 -0.014020372 -0.08639654 -0.02749777 0.058585193 0.061912104 -0.048079763
-0.06337649 0.09891496 0.04688482 -0.07323493 -0.056139547 -0.08128144 -0.050229024 0.07923095
0.03274466 0.018255362 0.09121126 0.05664 0.012731035 -0.089151256 0.06874996 0.052999914

transformer.layers.0.self_attn.out_proj.weight f4 [64, 64]
00000000: 7358 28bd 574d 703d 3f98 83bd 6670 f0bd
00000010: d23a e53d 971d b5bd d0bf febd 6b87 82bd
00000020: 1342 d43d 217a e3bc 6ac1 a6bd 9e09 47bd
00000030: 3b1d 51bc b06d d8bd a69a a5bd ade0 fc3d
00000040: 64ed c13d 7bf9 843d b9a1 4a3c 6b8e bdbd
00000050: b371 21bd 0d85 94bd 3e63 debd 6dd4 febd
00000060: 9e04 863d 2701 a33d 6741 153e ce58 2fbc
00000070: 9f0e 2fbd 3fa9 543b 130e 8b3d 522f 76bd
00000080: f457 f9bd 014f c9bd 836b dcbd db5d 0ebe
00000090: 9876 40bd 7c24 2ebd fe78 eebc 5a0a b53b
000000a0: 4371 15bd d840 0c3e 58d5 34be 7ef7 e13d
000000b0: cc19 d6bd ce57 f3bd 6858 eabd bae7 9ebd
000000c0: cb41 52be 96a1 c53c 4b22 133e 9dab ecbb
000000d0: e5bc df3c 58da 1cbd eb7c 85bd 48eb bf3c
000000e0: 1c91 153c c4bd 02be feb3 f03d 2380 d3bc
000000f0: 324d 08bd b0bf 50bd d52c 8a3d d32d 0e3e
00000100: 4ae6 0fbe 0931 323e 2fcd b5bd c5fc 8b3d
00000110: 8dfc 003e 0273 633d 04a1 08be 9504 2cbe
00000120: 1668 fc3d f395 b8bd 7fee 38bd f795 0c3e
00000130: 94ef 00be 280b 433e b741 b83d d223 e3bc
00000140: 5792 a73d d4bc d23c 12a8 c83d 4ea8 0dbe
00000150: 3931 6e3c 6942 06bd 8139 ac3d 8fc4 2e3e
00000160: d751 08bd a026 113e 7850 033c 4b2b 683d
00000170: b971 42bd a397 f3bb ab95 b43d b68f 3d3c
00000180: a6ea ba3d 2f0f f0bc e226 c8bd 9cf0 e8b9
00000190: 70ef 893c b5ac 9c3d da6f 1abd 17bb de3d
000001a0: 7067 16bd 241b 2ebd f49c 02be 9dc8 073e
000001b0: 25ec 1c3d 2e98 6a3d 816c f9bd 9d72 fd3d
000001c0: e8b3 443d c681 c5bd 83b1 8f3d 0462 2e3e
000001d0: 8f86 8dbd 3d61 963c a666 9e3d 1658 83bd
000001e0: c8c3 da3d face ad3d b6fa 263d 596b ebbd
000001f0: 7c77 d93c f3f5 943d 7c06 c33d 4738 3cbc
00000200: 2fa0 9f3d 81c4 8f3d b323 293d c559 d53d
00000210: 352e af3d fd1e 4fbc 384e 53bd 95ec 4cbd
00000220: 0889 efbd 1dcd a6bd 9e5a 883d e82c 8c3d
00000230: 090e c5bb 3f62 69bd 8f08 8b3d 4df4 863d
00000240: 7332 b9bd a017 c03d 79b7 243d 9dcf 013d
00000250: e4f9 9a3d ac4c febd 541a cb3d 6f0e 9a3d
00000260: 1fa9 da3c 95bc 1bbd ac1e 213e 3d5f 123d
00000270: 2e08 85bd 3e7a fe3c 909d cd3d 0a36 b2bd
00000280: a1af 043e 5d76 d63d 3d75 193c 87a1 39bc
00000290: dffa 27bc d04d 02bd ae67 d53d 07a3 043e
000002a0: fae8 21bd 87d1 fc3c 62ca 9bbd 9fc7 c0bc
000002b0: 8ae9 96bd a5c7 b4bd 15fc cabd 0edf 433d
000002c0: c5b6 df3c a7fa 00bd 5c2a 0dbe d6bc 9bbc
000002d0: ad71 2fbd 708e 3e3d c594 f8bd d474 0fbd
000002e0: fa6c 0dbe 96a9 e9bd c899 dd3c 49e6 7fbc
000002f0: 8e77 47bd ccdd 913d 8e2d 4d39 6c4c 0d3d
00000300: b6d3 7a3d 6a23 7a3d 6749 f3bd e17f abbd
00000310: 52ad 553d bb27 7f3d ee46 473c bb51 f93d
00000320: 67c3 97bd 787c b03b 1435 b2bb 6ce7 0ebd
00000330: f384 e63d 6e0b fcbd 0597 173d 49b4 183e
00000340: 9d87 ecbd f305 1b3d 7f5b 11be 5e40 0c3d
00000350: da7c a8bd 506d 293c ecd0 563d d13d d3bc
00000360: 6100 95bd cfe1 aebd ae0f d6bd d0db 7ebc
00000370: a496 113e dc46 18be fd51 76bd 9564 2a3d
00000380: 7fc9 963d 5504 583d f068 d53d 98d7 4c3d
00000390: f77c 78bc 688f 8ebd 4a6b 1bbd df26 04be
000003a0: 244d e23d 46a9 6e3d a800 f83d 57b7 ae3d
000003b0: 3a0d 693d 7413 ad3c 69a7 2a3d 58b1 c8bd
000003c0: 1eed 51bd 56d1 86bd b299 983d 047d 86bd
000003d0: 96af e83d 6960 b3bd 3c10 9b3c b347 cb3d
000003e0: 4b19 43bd c09b 0abb ac4c 3d3e a037 d73c
000003f0: cc3c bf3d abca aa3a cfe1 333c 51d7 6fbd
-0.041099977 0.058667507 -0.06425523 -0.11740188 0.1119286 -0.088435344 -0.12438929 -0.06373485
0.10364165 -0.027768197 -0.081423596 -0.048593156 -0.012763317 -0.10567796 -0.080861375 0.12347541
0.09469107 0.06492897 0.012367659 -0.0925568 -0.039415073 -0.0725194 -0.10858773 -0.12442861
0.065438494 0.07959204 0.1457573 -0.010702325 -0.042738553 0.0032449511 0.06789794 -0.060103722
-0.12174979 -0.09829522 -0.10762694 -0.1390299 -0.0469881 -0.042515263 -0.029110428 0.0055249156
-0.036484968 0.13696611 -0.17659509 0.110335335 -0.10454139 -0.11881982 -0.114426434 -0.07759042
-0.2053291 0.024124902 0.1436855 -0.0072226063 0.027311752 -0.038294166 -0.06517967 0.02342762
0.009128835 -0.12767702 0.11753081 -0.025817936 -0.033276744 -0.050964057 0.06746832 0.13884668
-0.14052692 0.17401518 -0.08877026 0.06835321 0.1259634 0.055529602 -0.13342673 -0.16798623
0.1232454 -0.090129755 -0.045149323 0.13729082 -0.12591392 0.19047225 0.08996909 -0.027727041
0.08182209 0.025724806 0.09797682 -0.13833734 0.014538103 -0.032778177 0.084094055 0.17067169
-0.033281174 0.1417489 0.008014791 0.056681912 -0.047471736 -0.007433848 0.088176094 0.011569908
0.09126787 -0.029304115 -0.09773041 -0.00044429756 0.016837806 0.07650129 -0.037704326 0.10875528
-0.03671974 -0.042506352 -0.12755185 0.13260122 0.038311142 0.057274036 -0.121788986 0.123753764
0.048023134 -0.09643893 0.070162795 0.17029577 -0.06910431 0.018356914 0.077344224 -0.064132854
0.106818736 0.08486743 0.04076644 -0.11495084 0.026546232 0.072734736 0.09522721 -0.011488027
0.077942245 0.07019902 0.04129381 0.10417513 0.08553735 -0.0126416655 -0.051588267 -0.05003031
-0.116960585 -0.08144591 0.06657909 0.06844503 -0.006013636 -0.05697846 0.06788742 0.065895654
-0.090428255 0.09379506 0.040214036 0.031692136 0.07567194 -0.12416968 0.09917131 0.07522284
0.026691971 -0.038021643 0.15734357 0.035735358 -0.06495701 0.031064149 0.10039818 -0.087017134
0.12957622 0.10471795 0.009366331 -0.011330015 -0.010252683 -0.03181249 0.10420166 0.12952815
-0.039528824 0.03086163 -0.07606961 -0.023532687 -0.07368763 -0.08827142 -0.09911362 0.047820143
0.027308831 -0.03148904 -0.1378569 -0.019010942 -0.04283302 0.046522558 -0.121377505 -0.035023525
-0.13811103 -0.11409299 0.027050868 -0.015618869 -0.048698 0.071223825 0.00019567294 0.03449671
0.06123706 0.06106893 -0.11879235 -0.08374 0.052167244 0.06229375 0.012162907 0.12173792
-0.07410317 0.0053859316 -0.0054384563 -0.03488867 0.11255827 -0.123068675 0.037009258 0.14912523
-0.11549304 0.03784747 -0.14195059 0.034241073 -0.082269385 0.010341004 0.052445337 -0.025786312
-0.07275463 -0.08539163 -0.104522094 -0.015555337 0.14217621 -0.1487078 -0.060136784 0.04159983
0.07362651 0.052738506 0.10420406 0.050010294 -0.015166513 -0.06960946 -0.037944116 -0.12905453
0.1104987 0.0582669 0.121095 0.08531063 0.05689738 0.02112744 0.04166356 -0.09799451
-0.051251523 -0.065828964 0.0745119 -0.065668136 0.11361615 -0.08758623 0.01892864 0.09925785
-0.047631543 -0.0021149963 0.18486279 0.026271641 0.09337768 0.001303037 0.01097913 -0.05855495

transformer.layers.0.self_attn.out_proj.bias f4 [64]
00000000: 4596 953c e837 51bd eef1 94bc 527c d9bb
00000010: cad5 dfbc 2f44 efbd 886a 91bc a433 753d
00000020: 793c 8dbd adb0 893c 37e5 73bc 7d80 80bd
00000030: c7df a53c b1d7 e63c 7a0e 473c ee0e 45bd
00000040: a2ff 59bd c56b 0a3d b8f5 58bb 3166 02bd
00000050: 9e92 a63c 68ac 983c 4409 013c 5291 cebc
00000060: 2793 493d 0f7b 3cbc bbbb 653d d78a 1abd
00000070: 89c1 f23b 3c58 efbc f2d3 323d 8ee9 233d
00000080: 5b69 523d 6fe8 283d c1c1 85bd 90f6 b73c
00000090: 9184 e3bc de74 34bd 7fa5 d3bc 119e 623b
000000a0: da25 46bd 59b7 913c 6763 c63b caca 863c
000000b0: ab25 db3c 0755 933c 8e64 d3bd 23a3 f93b
000000c0: 8acc b53d c3ef ba3b c384 073d 5dc1 a3bd
000000d0: 8060 b33d 06fd 283d f91b bd3b fc83 bc3b
000000e0: 8106 253c 0349 2c3d 9c85 283d f441 61bd
000000f0: 2f18 713d c641 21bd 1ae9 dabc ea63 233c
0.01826013 -0.051078707 -0.018181767 -0.0066371346 -0.027323622 -0.11682927 -0.017750993 0.0598637
-0.068963 0.016807878 -0.014886192 -0.06274507 0.020248307 0.028179022 0.012149448 -0.04810994
-0.053222306 0.033794183 -0.0033105444 -0.03183574 0.020333584 0.018636897 0.007875744 -0.025215778
0.0492126 -0.011503949 0.056087237 -0.037730064 0.007408325 -0.029216878 0.043659158 0.040017657
0.051370006 0.04123729 -0.06531096 0.022456437 -0.027773174 -0.044056766 -0.02583575 0.0034579078
-0.04837594 0.017787622 0.00605433 0.01645412 0.02675136 0.01798488 -0.10321914 0.0076183244
0.08876903 0.0057048514 0.033085596 -0.079958655 0.0875864 0.041256927 0.005771157 0.0057530385
0.010072351 0.042061817 0.041143045 -0.05499454 0.058860954 -0.039369367 -0.02672248 0.009972552

transformer.layers.0.linear1.weight f4 [128, 64]
00000000: f354 c03d 544b cfbd b02e b23d efa2 5b3d
00000010: e17c d33c 3d9e b83c 29b5 90bd dd00 833c
00000020: 49ee 143d e61e 763d a9f2 be3c 8f0e a53d
00000030: 487b e03c 6c02 9bbd 2354 763d b171 8f3d
00000040: fb53 743d e72d 49bd 771d eabb bf3f c33a
00000050: dfe5 29bc a1c1 b83d 86f6 0dbe b9bb b83d
00000060: 18be 16bc 5060 8c3b b17d 9f37 874e 12be
00000070: ccdb dd3d bd0a 5d3b 44bb 93bd 8f55 e23d
00000080: 7110 e73d 95ad 6bbd a7f5 19bd 993f 64bd
00000090: 072a d4bd 516d d2bd d2e2 95bd 635d 84bd
000000a0: 68ec b4bc 4885 49bd 5eeb b23d fb01 1abd
000000b0: 0d73 a73d d118 e0bd 8f5f 903c 6c1b a83c
000000c0: 6a94 173d df6c 553d 732b 773d 239c a63c
000000d0: d252 9a3d ce1d ee3d 6629 913d 8909 923d
000000e0: 95fb 15bd 6b1b 853d 263d 843c 3bba 8f3d
000000f0: 95b2 a33d 7741 a43c ec1b 0e3d 3956 4a3d
00000100: c451 cf3d 98bd ee3d b247 40be 14d1 e43c
00000110: a748 c53d 449c 91bd c864 adbd 4a12 c03b
00000120: 43a0 0c3d b553 a73d 8ec3 b53c f98a 0f3d
00000130: ef1d fabd 877f e43c eb9c 02be 4b23 cfbc
00000140: 7928 9c3d 0746 bbbd 7e98 fb3d 71f6 0cbe
00000150: 4bda d43d 9f30 dabd 3f5f 41bd 5b34 1dbd
00000160: 6927 0f3e 6b5c 02be 0ee0 483d 3363 d4bd
00000170: e4f0 27bc 4ec9 78bc 623c 13ba 9011 62bd
00000180: 58ee 033e af1b 303e 7986 39be d06b 0f3d
00000190: dd66 e9bd 099e debd 4701 38bd 7de5 5b3e
000001a0: a654 b9bd 653f e23d ce20 df3d 95c4 853c
000001b0: da70 443d 80ec 193c e427 153d eb37 353d
000001c0: 693b 0dbe 9b00 da3c b431 553d 1017 04be
000001d0: 9708 193e 8822 fdbc 22b7 343d 6802 61bd
000001e0: 460a d33d 018c 8f3c 03ac a4bd 020d b1bd
000001f0: 75fb a13c ff9b 50be f3e0 083e b840 fcbd
00000200: 3fd6 70bd 4bed b1bc b084 dcbd 06eb 7a3d
00000210: f2e1 9bbd 7ebe 05bd cf88 613d a84d b33d
00000220: 657c ebbc 02be ea3c b756 9dbd 04c7 18bb
00000230: 5ae1 d73d 18e3 a33c 7fb2 8bbd b0ed 973c
00000240: f8dd 143d c325 a93d ee1d 2fbc 5e8b 88bd
00000250: f871 dabb 7f38 c83d cc81 9ebb c252 a73d
00000260: 43cc 3d3c 589f 913d a68c 6abd 2cc2 953c
00000270: ee36 e4bd 92ac 7c3d 58f5 d4bd d2a8 a6bd
00000280: 4aba 58bd bc54 ba3c 0b8c f9bc d8fc efbd
00000290: c0dc 283d 669c 81bd d39a 82bd 8e4c 833d
000002a0: d038 46bd 1134 69bd 6a84 c8bc e76c acbd
000002b0: f4b7 a63c f7ac 4fbd aa7a 233b 4950 73bb
000002c0: 27eb 923d d34a c0bc 7508 e9bd 2585 1a3d
000002d0: c034 fbbd ed28 f3bd 2ea3 8dbd c082 e7bc
000002e0: 306d 0bbe 2ff0 d63c 4716 e83c c07f fcbd
000002f0: 7b1f e3bd f59d 66bd f9d2 3b3d 3a7b 983d
00000300: 595c f1bc 8bc0 243e 1698 2f3e 72c3 313c
00000310: dc33 8dbd 643d 28bd 9324 96bc 2b3d e6bb
00000320: 38ec 4f3d 8d53 ab3d 7657 b9bd e0b2 f3bd
00000330: 3c0d bbbd 6f10 493d f426 0abe 3bb5 473d
00000340: 10ef d53d c17e 55bb 3145 c9bc 9a22 aa3d
00000350: 7d74 053e c20d 3fbc 97ac eebc 95c0 973d
00000360: 6660 91bb 9948 db3c a712 9f3c 7794 1e3e
00000370: 2b1f 293d ad75 b2bc 0248 0e3e 0f86 1ebe
00000380: ef26 4ebd 34f7 79bd d8d1 0cbe 3d93 203e
00000390: f94a 19bd 2341 af3d 362b e93d eb50 e9bd
000003a0: 8eba e3bc cbce 923c 3ac8 bbbd f35f 2d3d
000003b0: b33e 93bd 39e8 803c befe 45bd e5b0 a9bc
000003c0: bada 7ebd a9db 913c ee49 963d 02f6 393d
000003d0: 94bf 75bb 2ab1 c8bc 03de b4bd f92e dfbb
000003e0: 488c 263d 8bde 3bbd b4a0 92bd d13d dd3d
000003f0: 9015 84bc 61c8 92bd e8d5 2abd bfcd 49bd
0.09391203 -0.101217896 0.08700311 0.053622182 0.025816383 0.022536391 -0.070658036 0.015991623
0.03636006 0.06008806 0.023309069 0.080594175 0.027402535 -0.07568821 0.060138833 0.07004107
0.059650403 -0.04911604 -0.0071446258 0.0014896317 -0.010369747 0.09021307 -0.13863572 0.0902018
-0.009200595 0.0042839423 1.9012807e-05 -0.14287768 0.108329386 0.0033728324 -0.072134525 0.11051475
0.11282433 -0.057538588 -0.037587788 -0.055724714 -0.103595786 -0.10274757 -0.07318653 -0.064631246
-0.022085384 -0.049199373 0.08736299 -0.037599545 0.08176241 -0.10942233 0.01762369 0.020520888
0.037006773 0.05210578 0.06034417 0.020338124 0.07535328 0.116267785 0.07087974 0.07130725
-0.03661688 0.0649937 0.01614244 0.070179425 0.07993046 0.020050747 0.034694597 0.049398635
0.101230174 0.11657256 -0.1877735 0.027931727 0.09632998 -0.071098834 -0.08466488 0.005861555
0.034332525 0.08170263 0.022187974 0.035044644 -0.12212741 0.027892841 -0.12755172 -0.025285384
0.07624907 -0.09144216 0.12284945 -0.13765885 0.103931986 -0.10653805 -0.047209974 -0.03838001
0.13979878 -0.12730567 0.0490418 -0.10370483 -0.010250304 -0.0151847135 -0.0005616603 -0.05519253
0.1288389 0.1719806 -0.18117703 0.035014927 -0.11396573 -0.108699866 -0.044923093 0.21474262
-0.090493485 0.11047248 0.10894929 0.01632909 0.047959186 0.009394765 0.036414996 0.04424278
-0.13792194 0.026611617 0.052049354 -0.12899423 0.14944683 -0.030900255 0.04411996 -0.054933935
0.10304694 0.017522814 -0.08040621 -0.08645059 0.019773224 -0.20372008 0.13367061 -0.123170316
-0.05879807 -0.021719595 -0.10767496 0.061259292 -0.07611455 -0.03265237 0.05506211 0.08755046
-0.02874584 0.028655056 -0.07682555 -0.0023311982 0.10541029 0.020005748 -0.06821155 0.018545955
0.0363445 0.082591556 -0.010688288 -0.06667207 -0.006666418 0.09776401 -0.0048372503 0.08170082
0.011584344 0.071104705 -0.05726304 0.018281065 -0.111432895 0.061688013 -0.10398358 -0.08137669
-0.052912034 0.022745483 -0.030462286 -0.11718148 0.04122615 -0.06328659 -0.063771866 0.06411086
-0.048394024 -0.05693442 -0.024477202 -0.08419209 0.020351388 -0.05070206 0.002494494 -0.003712671
0.07173758 -0.023473179 -0.11378566 0.037724633 -0.12265921 -0.1187304 -0.0691589 -0.028260589
-0.1361587 0.026237575 0.028330935 -0.12329054 -0.11089989 -0.056302983 0.045855496 0.074453786
-0.02946298 0.16089074 0.1714786 0.01084982 -0.06894657 -0.04107417 -0.018327987 -0.0070263348
0.050762385 0.083655454 -0.09049885 -0.11899352 -0.09133384 0.049087938 -0.13491422 0.04875682
0.10445988 -0.0032576772 -0.024569126 0.08307381 0.13032718 -0.011660995 -0.029135032 0.07409779
-0.0044365404 0.026768016 0.019418074 0.15486322 0.04128949 -0.021784628 0.13894656 -0.15480827
-0.0503301 -0.061026767 -0.13751924 0.15681167 -0.037425015 0.08557346 0.11385195 -0.11392387
-0.027798917 0.017920872 -0.091690496 0.042327832 -0.07189693 0.015735732 -0.048338644 -0.020714233
-0.062220313 0.017804937 0.0733832 0.045400627 -0.0037498223 -0.02449854 -0.08831408 -0.0068110195
0.040661126 -0.04586653 -0.07159558 0.10802806 -0.016123563 -0.071671255 -0.041707903 -0.04926848

transformer.layers.0.linear1.bias f4 [128]
00000000: 59af 04be 3a4b 353d fa4c f3bd 51ff 9cbd
00000010: 5ef4 00bd 167e 0cbe 465c 2ebd 052b 18bd
00000020: b740 fbbd d81b 0bbe 683c a1bd 201f e43d
00000030: ee8f b4bd 27bf 8d3d c906 e43d 85a2 29bd
00000040: ec88 ad3d a941 90bd 40c5 13be bd43 043e
00000050: eb24 bf3d 14d6 193d bdc6 c8bd b223 97bd
00000060: 3fb0 e33d c9ec 863d 1b02 a1bd e290 8b3c
00000070: 050f 4ebd f970 e2bc 7b5c 0abd 9c4f c6bd
00000080: dabd 923c bfbd 6abd 0905 8d3d 369d bebd
00000090: 5b25 44bd 8fee ff3b bad9 d23d 805f b83d
000000a0: 9b1e b93c 319d 27be 749c a53d eb10 cebc
000000b0: 8a29 00be 87f4 9dbd 557d eabd 1d28 e7bd
000000c0: a4e7 143d f9c9 ba3d b084 19be 8abe cd3c
000000d0: 4ae7 d6b9 d01e 85bd 0411 a6bd 0012 9dbd
000000e0: b749 b6bd 4e52 f53d 0d80 e83d f206 043d
000000f0: 7cc2 e9bc bc1d 01bd 2328 aebc 059f f3bd
00000100: b386 e2bd f222 673d fa64 82bc 878d 36bd
00000110: e67e 6dbd c80a 353d ef1c 2ebc fd71 b6bd
00000120: 97d3 2abd f997 35be c465 e7ba a6f5 a03d
00000130: a87d 16be cd22 0ebe 9c1a c7bc 354c 9b3c
00000140: 0bc6 983d 8c58 403d 6b90 9e3d c082 b13d
00000150: 48eb 6bbc eb99 74bd 7d96 d5bd a86c f03c
00000160: d44f 68bd 0b4a e2bd 2c20 8f3b 624d abbd
00000170: 2359 35ba 2f5d 043e 420c 663d 70dc 35bb
00000180: 0e0b ac3b a2c2 0aba 3a54 c2bd 85ba 3cbe
00000190: fbc0 033e 951e 26be 0029 cc3c 2ffc ae3b
000001a0: f179 0e3c 2565 cfbd 23d8 f23c 28e1 e0bd
000001b0: 92e3 99bd d1ae e83d 9d9d cabc 509e 003e
000001c0: 35d7 0bbe b550 a13d aee0 ac3c 5c96 923d
000001d0: 1106 1cbd ecdc 3d3c 5ac0 863c 3852 78bd
000001e0: 5647 edbc 5972 c9bd cfc9 90bb 032e 463d
000001f0: 2631 61bd f894 5fbc fa62 a03b b441 f7bd
-0.12957515 0.044261195 -0.118799165 -0.07665885 -0.031483047 -0.13719973 -0.042568468 -0.0371504
-0.12268203 -0.1358484 -0.0787285 0.11138749 -0.08816515 0.06921225 0.11134107 -0.041414756
0.084733814 -0.07043774 -0.14430714 0.12916465 0.093332134 0.037557676 -0.09803531 -0.07379855
0.11117601 0.06588132 -0.0786173 0.017036859 -0.050307292 -0.02764176 -0.033779602 -0.09683153
0.017912794 -0.057309862 0.06885726 -0.09307329 -0.047887187 0.007810421 0.10295434 0.0900259
0.022597602 -0.16368558 0.08086482 -0.025154551 -0.12515846 -0.077126555 -0.114496864 -0.11286948
0.036353722 0.091205545 -0.14992023 0.02511527 -0.00040989585 -0.06500018 -0.08108714 -0.07669449
-0.08900779 0.11978589 0.11352549 0.032233186 -0.02853512 -0.031522498 -0.021259373 -0.11895565
-0.11060848 0.05642981 -0.01591729 -0.044568565 -0.057982348 0.044199735 -0.0106270155 -0.0890846
-0.041705694 -0.17733754 -0.001765423 0.07859354 -0.14696372 -0.13880463 -0.02430468 0.018957237
0.07459649 0.046959445 0.07742389 0.08667517 -0.014399357 -0.0597171 -0.10429094 0.029348686
-0.056716755 -0.11049279 0.004367849 -0.08364369 -0.00069178845 0.12926172 0.056164034 -0.00277498
0.0052503413 -0.0005293285 -0.09488721 -0.18430527 0.12866585 -0.16222604 0.024921894 0.005340121
0.008696065 -0.10126714 0.029644078 -0.10980445 -0.07514109 0.113614686 -0.024733359 0.12560391
-0.13656314 0.07876722 0.02110323 0.07157585 -0.038091723 0.011588316 0.016449142 -0.060625285
-0.02896468 -0.09836263 -0.0044185887 0.048383724 -0.054978512 -0.013646357 0.0048946114 -0.12073079

transformer.layers.0.linear2.weight f4 [64, 128]
00000000: 08f2 fa3c c604 cbbd d3de 7e3d bd3b af3b
00000010: 7be4 c93d 331e 8cbd a92c 8c3d c0d3 f7bc
00000020: 7e5a 86bd 84fb 60bd ab5b 833d 2da2 fbbc
00000030: d83e 9d3c 2e42 1cbd 9d7f d5bc d5d6 1dbd
00000040: 77de 02bc 3e4e c9bd 2aec 4dbc 87ce de3d
00000050: dd10 84bc b129 843d 30e1 3cbd 205a 75bd
00000060: ea19 c53d 7954 953c 542a 00bd 9313 8abd
00000070: acd3 d13d b20d 4cbd 9f17 b7bd afb7 703d
00000080: 462c f53c 669a 8ebd 9205 4f3d 1f0c c93d
00000090: 017d db3d c4d3 cd3d 8671 dfbc b8ba 973d
000000a0: 12b5 29bd 5d21 dabc f40d a8bd 5114 833c
000000b0: 5caf 2d3d 554c d63c d774 78bc 70f5 c63c
000000c0: 9a65 383b 7f04 d8bd 7e85 ec3d 091b 09bd
000000d0: 6b7e d33d 284b c2bb 64e3 d63d f007 b3bd
000000e0: 8515 123c 5276 30bd 0068 04bd 741a 24ba
000000f0: a6bb 80bd e4a4 153c 84f8 3e3d 2564 8e3d
00000100: bf7d 663d b86d 033b 5923 93bd 455f e1bd
00000110: d587 623d ed37 b83c 836b 2a3d 1c94 8f3d
00000120: a0f1 bd3d cce6 a83d 4157 db3d 8127 74bd
00000130: e954 9a3c 45ea 0b3c 9c8d cabd 26c8 2b3d
00000140: 4601 c73c a21b 3cbd 5a53 003e 7d4e e4bb
00000150: bdc1 27be 44fa fb3d a8b9 a0bd 6040 663d
00000160: 9ba7 bd3d 8c67 9f3d e0ad 67bc c92c 62be
00000170: bb1b 393d 33e6 ea3a 178f 9a3d 920a 38bd
00000180: 5bd3 53bd 5765 f5bd ecef 803d 05be c4bc
00000190: 3bdc 98bd 11c2 973d 583f 03bc b279 9b3c
000001a0: 1fc4 0fbd 9ec0 a8bb 11fe 34bd 13fc 7cbd
000001b0: 4e03 a93d 86a3 40bd 44fb c13d 6200 94bc
000001c0: 23f9 b43c 2b2a 17bd d9ee 3e3d 5a32 6b3d
000001d0: 9cfe d8bc e43e c83d 18c7 793d 1b77 df3d
000001e0: 2822 cfbd dad1 65bd 1369 5cbd da6e e43c
000001f0: 13b9 68bc c936 abbd 3e0e ed3c 61b7 f6bc
00000200: 682b f33a a9dc 6d3d fd54 cfba 0dcb d63d
00000210: 1c7e 50bd c210 963d fc91 1cbb d829 a4bd
00000220: f9f9 073e e4cf c1bc faec bebc aa12 973d
00000230: 1969 14bd 2fa7 05bc 6359 1dbd 81f8 14bc
00000240: 6af5 2f3d 49b1 98bd 3129 033c b3b9 95bc
00000250: ed7b 45bd cc9a 28bd ebcd 5dbd 440f 53bd
00000260: 73a1 403d 034e cebd 7beb 39bd d235 8ebd
00000270: 9d92 1f3d acd1 263d dd1f 3d3d 46e7 5b3c
00000280: 56f7 9dbd a928 f0bd de32 d8bc 7957 413d
00000290: 2d89 8b3c bb60 bc3d 424d ccbd b68b 4b3d
000002a0: c529 fdbd 6a67 21bd bb30 afbd 1e0a 94bd
000002b0: bbc6 cabd a73d 8bbc e078 dabb 32b8 0abd
000002c0: 179b c63d dc86 55bd 0107 a6bd 08c7 963d
000002d0: 0f38 d7bd 24bf a03c dcb6 0abe 6e60 1c3c
000002e0: efbc 1d3c 7e8b 1a3d 5e58 423b ca38 0ebd
000002f0: 967b 84bd be9e b6bc 72e4 86bc 42a5 55bd
00000300: ea14 323d 1787 28bd f668 52bc 0612 99bc
00000310: 53ff c63c 8c6c ba3a d2ed 793d 407a 48bd
00000320: 43d3 21bd f341 913c c8ed 163c e7ad c23b
00000330: 3fff dabd 51db 953d 2437 86bb 18a2 1fbb
00000340: b29e 6bbd 6d9e d73d 20d9 8abd e6e2 8a3c
00000350: f7e9 aebc df4a edbd 77dd 313c 13ef 833c
00000360: c410 00bd 8175 473d cd3e 82bc 0c25 d23c
00000370: 7384 d5bd 4ddf e13c df8a a8bd a8fd 8d3d
00000380: da45 43bd 9f66 5dbb ec1f 29bd 81ba 253d
00000390: 165a 9abd c94d 41bd 6796 543d cee7 81bd
000003a0: 1395 1c3c a830 58bd 3970 2cbd 5d73 563b
000003b0: 593d ca3d 0301 a4bc c3d6 04bd 4314 fdbc
000003c0: a1f3 8d3d 0ef6 b6bc 0dd0 ebbc 9d49 b4bc
000003d0: 0ee0 21bd 6646 85bc 8062 9e3d da1d bc3d
000003e0: ef8b 6fbd 0105 c9bc b050 653d 133e dcbc
000003f0: 64cb 833d 18f6 efbd 3f3d 99bd 6678 813d
0.030632988 -0.0991302 0.06222422 0.0053476975 0.09858032 -0.068416975 0.06844456 -0.030252337
-0.06560229 -0.054927364 0.06413969 -0.03071698 0.019195005 -0.03814905 -0.026061827 -0.038534958
-0.00798761 -0.09829377 -0.012568513 0.10879236 -0.016121322 0.064532645 -0.046113193 -0.059900403
0.09624083 0.018228756 -0.031290367 -0.06742015 0.10245451 -0.04981775 -0.08940052 0.058768924
0.029928338 -0.06963043 0.05054242 0.09816765 0.10717202 0.10050157 -0.027275812 0.07408661
-0.041432448 -0.026627237 -0.08205786 0.016000899 0.042403564 0.026159445 -0.015164576 0.024286956
0.002813673 -0.105477326 0.11548899 -0.03347305 0.10326847 -0.0059293695 0.1049259 -0.08741748
0.0089162635 -0.04308159 -0.032325745 -0.00062600453 -0.06285791 0.009133551 0.04662372 0.06952695
0.056272265 0.002005441 -0.071844764 -0.11004499 0.05530532 0.022487605 0.041606437 0.070106715
0.09274602 0.08247146 0.10710002 -0.059607986 0.018839316 0.008539741 -0.09890291 0.041938923
0.0242926 -0.04592479 0.12531796 -0.0069673643 -0.16382499 0.12303594 -0.07847911 0.056213737
0.09260484 0.07783422 -0.014140576 -0.22087397 0.04519246 0.0017921388 0.075468235 -0.044931956
-0.051715236 -0.1198222 0.062957615 -0.02401639 -0.07463881 0.07410062 -0.008010708 0.018978927
-0.035099145 -0.005149915 -0.04418761 -0.061763834 0.082525834 -0.047030948 0.09471753 -0.018066589
0.022091454 -0.03690545 0.0466145 0.057421066 -0.026488595 0.097776204 0.060980886 0.109113894
-0.10113937 -0.056108333 -0.053811144 0.02788489 -0.014204281 -0.08360059 0.028937455 -0.030116739
0.0018552365 0.058071766 -0.0015818175 0.104879476 -0.050901517 0.07327415 -0.0023890724 -0.080157936
0.13278951 -0.0236587 -0.023306359 0.07376607 -0.03623304 -0.008157535 -0.038415324 -0.009092451
0.042958654 -0.074556895 0.008005426 -0.018277025 -0.048213888 -0.04116325 -0.054151457 -0.05152823
0.04702897 -0.10073473 -0.045390587 -0.06943859 0.03895818 0.040727302 0.046172965 0.013421839
-0.07713191 -0.11726505 -0.026391443 0.04720256 0.017033184 0.091981374 -0.09975673 0.049693786
-0.123614825 -0.039405264 -0.085542165 -0.07228492 -0.09901186 -0.016997172 -0.0066672415 -0.03386707
0.0969755 -0.052130565 -0.08106805 0.07362181 -0.10508739 0.019622393 -0.13546318 0.009544475
0.009627565 0.037730686 0.0029654722 -0.034722127 -0.06468885 -0.022292491 -0.016466353 -0.052159555
0.043476976 -0.041144457 -0.012842407 -0.018685352 0.02429167 0.0014223023 0.06101782 -0.04894471
-0.039508116 0.017731642 0.009211965 0.005941141 -0.106932156 0.07317222 -0.0040959287 -0.002435809
-0.05752439 0.10528264 -0.067796946 0.016953897 -0.021351798 -0.11586546 0.010856024 0.01610521
-0.03126599 0.048696045 -0.015899086 0.025652431 -0.10425653 0.027572298 -0.082296126 0.06933147
-0.047674038 -0.003378309 -0.04129021 0.040461067 -0.07536714 -0.047193322 0.051901247 -0.06343041
0.009557026 -0.052780777 -0.04209921 0.003272257 0.098749824 -0.020020014 -0.032431375 -0.03089345
0.06931234 -0.022334125 -0.02878573 -0.022007758 -0.039520316 -0.01626892 0.07733631 0.09185381
-0.05848306 -0.024538519 0.055985153 -0.026885068 0.06435278 -0.117168605 -0.07482385 0.06321792

transformer.layers.0.linear2.bias f4 [64]
00000000: 86d3 aa3c e850 f8bb 9be6 adbd 613a f6bd
00000010: f8d1 30bd af61 f3bc dce9 b73d b8d7 70bc
00000020: 0c4b a2bd cd64 74bc 5819 47bd dffd 5f3d
00000030: 1d2a a3bc 53eb b7bd 1118 30bd f759 04bc
00000040: 143d c1bc 8716 c5bd ca4e f83c 7a59 df3d
00000050: ee04 e4bd 4529 dd3d 50ff 6a3d d61d bd3c
00000060: 3311 01bd 9734 1e39 ed49 d93d 8dd4 e4bb
00000070: c554 433d 0045 f73c 429b 58bd 3253 973d
00000080: dc4c c0bc 3de1 b0bb de35 30bd 8b4a 133c
00000090: f3c5 da3d 8d36 b83d 0c27 dc3c 7396 9dbc
000000a0: ee77 533d 982c 283d 1584 06bd 5858 5a3d
000000b0: 7047 f7bd 08b2 b93d 691b f8bc 8939 eeb9
000000c0: 08a9 42bb 7566 053d c66f b7bd b0f4 0d3e
000000d0: 8142 1c3b a1f2 fdbc aa93 15bd 9d40 30bb
000000e0: 934f 54bc 027d ac3d 8b43 3bbc 6776 ce3d
000000f0: 78d9 91bd 1cce 8ebd 131f a5bd 8304 bb3c
0.020852815 -0.007578004 -0.0849125 -0.12022854 -0.04316899 -0.029709665 0.08980152 -0.014699869
-0.0792447 -0.014916611 -0.048608154 0.05468547 -0.019917542 -0.089804314 -0.0429917 -0.00807809
-0.023588695 -0.096234374 0.030311007 0.10905738 -0.11133753 0.10798887 0.05737239 0.023085516
-0.031510543 0.00015087645 0.10609803 -0.006983346 0.047688264 0.030184269 -0.05288244 0.07388915
-0.02347415 -0.0053979442 -0.04302012 0.00898994 0.10682287 0.0899478 0.026874088 -0.019236779
0.051628046 0.041058153 -0.032840807 0.053306907 -0.120741725 0.0906716 -0.030286508 -0.00045437764
-0.0029702801 0.032568414 -0.08956866 0.13862872 0.002384335 -0.030999484 -0.036517777 -0.0026893981
-0.012958425 0.08422281 -0.011429678 0.10081177 -0.07121557 -0.06972906 -0.080625676 0.0228293
